model/model.pth (torch, 13727 bytes, 4 tensors)

linear1.weight f4 [256, 6]
00000000: 3c17 afbe 860f b8be bf5b bfbc c064 6dbe
00000010: 7a61 b2be 71f0 533e 8717 4b3d e93b 833e
00000020: 3d28 f4be 0a3a b13d a7c3 dfbe b538 9ebd
00000030: 41c4 aa3c fdb4 dbbe e7a4 05be 5eb2 53be
00000040: 5a49 2f3c e4fe 9fbe 7a63 733e 3dfa 35be
00000050: ec21 76be d933 1cbf 8602 a3be 97b7 6cbe
00000060: ed09 253e 9e61 8abe 3c3a 9ebe eb2a 04be
00000070: 7a86 e1be 8f7b b63e 67d0 d0be 0389 a93e
00000080: 88b2 18bc 6a1b 9d3d d8f2 3f3d 2aea 40be
00000090: 6e96 b93b a242 0fbe 745d 0cbf 6023 453e
000000a0: 7720 6f3e 7e6b 15be 1230 0b3e 9ad8 073d
000000b0: c09b e63e 9dc8 a4be 74f6 0fbf e3c2 c3be
000000c0: 4736 723e f805 aebe 734e 3fbf 4abc 52bf
000000d0: 082c efbe 1294 5a3e 027a 1ebe d68a 50be
000000e0: 68f3 603e afd2 88be e86a 903e c888 053f
000000f0: 0eab 09be fbdb 2ebe d24f 34be 62ad 4c3e
00000100: 4770 13be 90b3 8fbd 2d9f 24bd 4b15 edbe
00000110: 74b9 bdbd 90a2 e63c 7dff 7f3e 999b 53bd
00000120: 23df 463e cde7 f2bd c5d0 00bf c2db a3be
00000130: cf0c 8d3d 743b 61be 6574 9b3e 5504 bcbb
00000140: 7e56 c63d 1680 ccbe 5107 4f3c f6e4 6fbd
00000150: bccb f9bb 5a85 f7bd cf95 323e cc77 063c
00000160: 8ecf 2bbe b50f 8c3e f78f 2abe 2f8e ce3d
00000170: 588a 05be 034c 9d3e 2ced 9bbe 52d7 b93e
00000180: 8636 083e c586 bb3a b9ff 03bf ca9c 8e3e
00000190: 8179 c03e 84c3 4ebe 0b81 1a3d 66b0 54be
000001a0: e88a c3be 4aa2 51be 0654 92be 1209 143e
000001b0: 5f61 24bd 3ed6 cf3d dea6 4cbe 5092 593d
000001c0: 8a6d 01be 6baf d93e 02e4 b8bd 083a d03e
000001d0: 649d 803e d941 f53c 4521 23be 2b22 89be
000001e0: 7969 463d 3b6d 153e e47c b23d c198 0a3d
000001f0: e636 debe 5b11 bb3e 65f3 723d a98e 5b3f
00000200: 3445 e73e 455f 593f 1ab7 d53d 5706 67be
00000210: d05f 383e 66c5 e7be 76a2 d83b a68a 2abf
00000220: 954b e4be 6235 8abe 0585 e1be 5f9e a43e
00000230: 0eb1 8f3e a2f2 cdbe a486 9fbe cab1 013e
00000240: 0eb0 803e 9862 15be 0a5c 40bf a809 13bf
00000250: fc68 3e3d 26db 11be fadb 553e 582b e8be
00000260: 532b cfbe 1a0a 0fbe 8a2d d5be 393d d83e
00000270: 4256 143e cda3 923e 6efd 593e 442b 97be
00000280: 8c38 74be 5719 40be fc84 863d f157 93be
00000290: 8ef2 79be f87a 2e3e cf4d b63e fc37 263e
000002a0: 0284 4e3e c80e 743e 03ae d7bd e792 05be
000002b0: 7296 643e 52c8 393e bfb5 aebe 4fae 9d3e
000002c0: 18bb 71bd 7781 85be 45ba f4bd c79c 613e
000002d0: b4e0 3fbe 4b9d 89bd d54f 093e f48b f63e
000002e0: dd21 db3e 62f1 623e 5ee9 873e ee5c 1c3d
000002f0: ac78 963c 043a ef3c d620 483e e9cd 433c
00000300: 8575 dbbe b7c5 363e e64d 743e 87de e63e
00000310: 499d a0be ed21 9abe dc3c 1c3e 3b8b bfbe
00000320: 7a06 00be 7cbd f6be db0e b9be d74c 1dbe
00000330: fa46 0e3e 0b72 83be dfd6 d0be b3cb 0fbf
00000340: 9d3d 073d eb3e 3f3d 7590 68bc 73c3 aabe
00000350: 08e6 80bc a084 bbbc 40be c33d b284 533e
00000360: b366 833c 9624 f6be 1b39 6ebe 3265 c7be
00000370: 3176 e13d 3772 993e 68db 05bc 6e3c 8dbe
00000380: 2aa5 6bbe 41eb c5be 82e0 7f3e 917e e33d
00000390: 71e6 783d 7ec6 c83d 2728 e3be 4335 303e
000003a0: b288 6bbe 1726 d2bc c3c2 c93c 41df 95be
000003b0: e315 cbbe e05f 963e d191 94bd b953 edbe
000003c0: da4f 9e3d 8f1c 9bbe 63fa b1bd ba0b e33e
000003d0: 54b6 a6be d040 bc3e e71c 1ebe fc29 7f3e
000003e0: 6f9c c43e 1fdf e1bc 2a65 13be 2a22 cebe
000003f0: e0b1 253c 1196 ae3d f3ad 56be 9821 50be
-0.34197414 -0.35949343 -0.023359178 -0.23182964 -0.34839994 0.2069719 0.049582984 0.25631645
-0.4768695 0.08653648 -0.43703958 -0.0772566 0.020845534 -0.4291152 -0.13051187 -0.2067351
0.010698641 -0.31249154 0.23768416 -0.1777124 -0.24036378 -0.61016613 -0.31837863 -0.23116909
0.16117068 -0.270276 -0.30903804 -0.12906997 -0.4404791 0.35641143 -0.40783998 0.33112344
-0.009319909 0.076712444 0.046862453 -0.18839327 0.0056636846 -0.13990262 -0.548301 0.19251776
0.23352228 -0.14591786 0.13592556 0.03316555 0.45040703 -0.32184306 -0.5623543 -0.38234624
0.23653518 -0.3398893 -0.7472908 -0.82318556 -0.4671328 0.21345547 -0.1547623 -0.20365462
0.21967852 -0.2672324 0.28206563 0.52161837 -0.13444158 -0.17076103 -0.17608574 0.19988015
-0.14398299 -0.07016671 -0.040190864 -0.46305308 -0.09263888 0.028153688 0.24999805 -0.05166206
0.19421057 -0.11860619 -0.5031856 -0.320036 0.06887209 -0.21995336 0.3036224 -0.005737821
0.09684466 -0.39941472 0.012636022 -0.058567964 -0.007623164 -0.12085982 0.1743996 0.008207273
-0.16778395 0.27355734 -0.1665648 0.10085713 -0.13041055 0.30722055 -0.30454385 0.3629709
0.13302049 0.0014307132 -0.51562077 0.27853996 0.375927 -0.20191771 0.03772072 -0.20770416
-0.38191915 -0.20472065 -0.2857973 0.14456585 -0.040131923 0.10148285 -0.1998553 0.05311805
-0.12639442 0.42516646 -0.09027864 0.40669274 0.2512008 0.029938625 -0.1593066 -0.2678388
0.04844043 0.1459245 0.08715227 0.033837084 -0.4340126 0.3653668 0.05931415 0.8576456
0.45169985 0.84910995 0.104353145 -0.22561012 0.180053 -0.4526779 0.0066111637 -0.6661781
-0.44588915 -0.26993853 -0.44046798 0.32152078 0.2806477 -0.40224177 -0.3115741 0.12665477
0.2513432 -0.14588392 -0.7514044 -0.5743661 0.04648684 -0.14243755 0.20884696 -0.4534557
-0.4046274 -0.13968697 -0.41636306 0.4223421 0.1448603 0.28640595 0.21288082 -0.29525197
-0.23849696 -0.18759666 0.065683335 -0.2877803 -0.24408934 0.17039096 0.35606238 0.16232294
0.20167544 0.23833764 -0.10531237 -0.1304432 0.22323015 0.18142822 -0.34123036 0.3079705
-0.059016317 -0.26075336 -0.119495906 0.22032462 -0.18738061 -0.067194544 0.1340936 0.4815365
0.42799273 0.22162393 0.26545233 0.038174562 0.018368088 0.029202469 0.19543776 0.011950948
-0.42863098 0.1784886 0.23857841 0.4509165 -0.3137 -0.30104008 0.15257591 -0.37410912
-0.1250247 -0.4819144 -0.36144146 -0.15361343 0.13894263 -0.25672945 -0.40788934 -0.56170195
0.033017743 0.046690863 -0.0141945975 -0.3335224 -0.015734687 -0.022890389 0.09557772 0.20656088
0.016040182 -0.48074788 -0.23263972 -0.38944393 0.11008871 0.29969952 -0.008169986 -0.27585167
-0.23012224 -0.38656047 0.24987987 0.11108125 0.06076664 0.098034844 -0.4436657 0.17207818
-0.23001364 -0.025652928 0.024629002 -0.29271892 -0.39665136 0.29370022 -0.07254375 -0.46352938
0.07730074 -0.30295226 -0.086903356 0.44344884 -0.3256098 0.36768198 -0.15440713 0.2491836
0.384006 -0.027572213 -0.1439406 -0.4026044 0.0101132095 0.08524717 -0.20964794 -0.20325315

linear1.bias f4 [256]
00000000: 9bc3 543e 7882 a43f 2107 0fbe b4bc fe3e
00000010: cde4 5e3f 67ba bcbd d16a b43e ff8a c0bc
00000020: a263 f03f b140 943f 2519 d0be 2a86 a53f
00000030: dfbb 033f cab1 403e f913 6d3f b948 d4be
00000040: 205b ebbe b7fb 04bf 72e6 be3f bfdb b73f
00000050: ae91 f93e ec57 b1be e1a1 463f 3738 89be
00000060: 1a44 893f 052f cc3e 56cd 91be 656a 22bc
00000070: d173 d7be 01de afbe 40ad 8ebd 7bf9 8f3e
00000080: 4830 cdbd de51 913f f7f5 8c3f c386 b8be
00000090: d8d2 6a3f d319 bf3f 98da d0be d44d c7be
000000a0: 3e16 c5be 249d 9e3f d502 a8be 7397 b8bd
000000b0: d536 143e 710a abbe 8408 a23f ae67 a13f
000000c0: 24f9 a93f f655 babd 9da3 bb3c a2c6 93be
000000d0: 8950 873f 4053 a23f 161d f13f bf97 abbe
000000e0: 9bc8 ddbe 4034 c23f 54bd 3cbe 81a4 c83c
000000f0: c3a9 cbbe 2219 3b3f 7f8d c6be 9867 533f
00000100: bf07 2bbd a85b d93f 6eda 2bbe d8d6 b6be
00000110: 36d2 eebe 7183 dd3f 0a0c 6dbe 6df5 b43f
00000120: 79d5 c33e 75fc a13f 1272 3abe 529e 8c3f
00000130: 8769 b63f 0013 19be daf6 f7be 60d5 773d
00000140: 9b54 c53f f6b4 14be 53e9 c03e 3202 cc3f
00000150: 1768 b3be 5916 95be 88c0 70be d520 9bbe
00000160: 7edd d6be b573 f23e e90b 90be 6b34 083f
00000170: f170 433f 511d 303e 18e0 973f e9d8 ba3f
00000180: a464 57be c101 843e a3c5 d23f e892 9ebe
00000190: 7435 9cbd 6264 c13f 0286 b73f be7b 1b3f
000001a0: e96a 21bd 1716 1cbf f691 cc3f 455d c53e
000001b0: 3c75 c43d 1a57 7abd 057b a23e f8a9 23bf
000001c0: 4a38 ac3f eb31 b6be e0d2 ae3f 2121 203e
000001d0: 7019 d9be 6df6 1abe 85c0 16be 2c1d eebd
000001e0: 64ba 9a3f be95 8ebe 3bd4 03bf 0aba ac3f
000001f0: 710a babe 060e cdbe baf1 6b3f 6c44 cdbe
00000200: 1819 87be 4a40 823e 22c4 a7be ca89 a2ba
00000210: 2352 ecbd 625f d43e 5cde 873d 43cf c63e
00000220: 474c ba3f 820c 8cbe 5005 dbbe d591 ea3f
00000230: b15c b03f 08af 633e 00f2 49be 6093 423f
00000240: 18ec dcbe 1aa3 f43c 80ed ad3f fed0 cc3e
00000250: db42 ecbe 6bd8 79be 4aca c33f 87d3 af3f
00000260: b9b9 97be ae0c cf3f 1f02 bebe f548 b13f
00000270: 5144 50be 6f7f 85be ade6 51bd 9048 6e3f
00000280: 5c84 a0be 011e abbe 95da 2dbf 2e9d d03f
00000290: 361d 43be 57ac 8a3e 0b40 96be e387 ba3f
000002a0: 35c5 e93f f1f9 bd3f 3c02 a23f fd18 0cbe
000002b0: 8cc9 eb3e 4265 c13f 3956 49be d377 a13e
000002c0: 170a 58be f348 6a3e cbdd fbbe 9d22 a0bd
000002d0: 99a5 9bbd b6df dd3f 7489 2d3f 4671 05bd
000002e0: 9b37 823e 8ba1 08be 7faf 85be 4163 01bf
000002f0: 6506 d2be b38f 7ebe 3fca cf3f 988b d3bd
00000300: 0731 b53e 613e 5c3e f490 3dbe 9ee4 14bf
00000310: 2500 cf3f 80f8 05bf eeeb bcbe 0555 cd3f
00000320: 1b89 1ebe d231 a9be 5c89 be3f 7465 6ebe
00000330: 6d8c c43f a72e 9f3f c244 ca3f d527 ce3e
00000340: b041 5f3e 0b2e 5bbe ffc2 a63f e382 4bbe
00000350: 433e b3be 681e 1dbe 6740 be3f dbc5 b43f
00000360: c8dd d83f 2465 efbe a16b 0b3f 7b27 98be
00000370: e0cf a53f e0e0 e4be e219 b73f bcc7 d3bd
00000380: 1ea3 ad3f 7693 6cbe 21ed d1be 601f cb3f
00000390: 245c 013f c0e2 e6be bcd9 14bf 3fa3 1c3f
000003a0: c8db a2be f3f2 dd3e d698 4b3f 8dab 71be
000003b0: 798e 14be 7eb6 4b3f 1d33 58be 3ea5 5dbe
000003c0: b26d fd3e 9eda 92be 7562 e03f cdf8 31be
000003d0: 4dfe 9c3f cc73 993e e5d5 093e 3a66 283f
000003e0: 2bd7 dbbd 1ec6 cf3f c36a b6be 803f b43f
000003f0: 5360 adbe ccbd 95bd e779 02bd c830 af3f
0.20777743 1.2852316 -0.13967563 0.49753344 0.8706787 -0.09215241 0.35237744 -0.023503779
1.8780406 1.1582242 -0.40644184 1.2931569 0.51458544 0.18817821 0.926086 -0.41461733
-0.4596796 -0.51946586 1.4914076 1.4363936 0.48743957 -0.34637392 0.7759076 -0.268007
1.0723908 0.39879623 -0.2847697 -0.009913062 -0.42080548 -0.34349063 -0.069666386 0.28120026
-0.100189745 1.1353109 1.1012563 -0.36040315 0.9172797 1.4929756 -0.40791774 -0.38926566
-0.38493532 1.2391706 -0.3281466 -0.09013262 0.14474042 -0.33406404 1.2658849 1.2609766
1.3279157 -0.09098427 0.022905165 -0.28862482 1.0571452 1.2681656 1.8837001 -0.3351421
-0.43317112 1.5172195 -0.18431598 0.024492504 -0.39777955 0.73085225 -0.38779828 0.82579947
-0.041755434 1.6981096 -0.16782543 -0.35710788 -0.46644753 1.7305738 -0.23149124 1.4137398
0.38248804 1.2655169 -0.18207577 1.0985816 1.4250954 -0.14948654 -0.4843052 0.060506225
1.5416445 -0.14522156 0.37678012 1.593817 -0.35040352 -0.29118612 -0.23510945 -0.30298486
-0.4196586 0.47353902 -0.28134087 0.53204983 0.7634421 0.17198683 1.1865263 1.4597446
-0.21034485 0.25782588 1.6466564 -0.30971456 -0.07627383 1.5108759 1.4337771 0.6073569
-0.039408598 -0.60971206 1.5982044 0.38547722 0.09592673 -0.061118223 0.3173448 -0.63931227
1.3454678 -0.3558496 1.3658104 0.15637638 -0.4240222 -0.15133066 -0.14721878 -0.11626658
1.2088132 -0.2784862 -0.51495713 1.3494275 -0.3633609 -0.40049762 0.9216572 -0.40091264
-0.26386333 0.25439674 -0.32766825 -0.0012400683 -0.11539104 0.4147902 0.066342086 0.38830003
1.4554528 -0.27353293 -0.4277749 1.8325754 1.3778287 0.22234738 -0.19721222 0.76006126
-0.43148875 0.02986293 1.3588104 0.40003198 -0.46144757 -0.24398963 1.5296109 1.3736428
-0.29633883 1.6175745 -0.37110993 1.385039 -0.2033856 -0.26073787 -0.05124538 0.9307947
-0.31350982 -0.3342133 -0.67911655 1.6297967 -0.19054112 0.2708461 -0.29345736 1.4572719
1.8263308 1.4841901 1.2656932 -0.13681407 0.46052206 1.5109026 -0.19661798 0.3153673
-0.21097599 0.2287939 -0.49192652 -0.07819102 -0.075999446 1.7333896 0.6778786 -0.03257873
0.2543305 -0.13342874 -0.26110455 -0.50542074 -0.41020504 -0.24859504 1.6233596 -0.1032936
0.35388967 0.2150817 -0.18512326 -0.5816134 1.6171919 -0.52332306 -0.3689875 1.6041571
-0.15481989 -0.33045822 1.4885669 -0.23280889 1.5355355 1.2436112 1.5802233 0.40264764
0.21802402 -0.21404283 1.3028258 -0.19874148 -0.3500844 -0.1534363 1.4863404 1.4122881
1.6942682 -0.46756852 0.54461104 -0.2971762 1.2954063 -0.44702816 1.4304774 -0.10340831
1.3565404 -0.23103127 -0.41001227 1.586895 0.5053122 -0.45094872 -0.58144736 0.61186594
-0.31808305 0.43349418 0.79530084 -0.23600598 -0.14507474 0.79575336 -0.21113248 -0.21645066
0.49497753 -0.28682417 1.7530047 -0.17380066 1.2265106 0.29971159 0.134605 0.65780985
-0.107343994 1.6232336 -0.35628328 1.4081879 -0.33862552 -0.073115915 -0.031854536 1.3686762

linear2.weight f4 [5, 256]
00000000: 3667 d7bd 69c9 7d3e 46cb 973d 7ff7 b53d
00000010: 3ea1 113e becf 1ebd aa1b 933a 26ce 6c3e
00000020: 4555 753e c9b2 ad3e c42d bebc 28b2 a43e
00000030: d55e 1c3d bc55 1f3e 5601 473e e011 293c
00000040: bb79 b3bd 77ff 6a3d c1d5 ce3e 9d72 f43e
00000050: 97be e93d fba6 42bd 1269 2c3e 3198 543b
00000060: 708d eb3d c294 0d3d c055 193e 049f 65bd
00000070: 42b6 a03c c879 45bd 9342 9f3d ac08 ea3d
00000080: 016c 0d3e 7834 493e 6f35 3d3e 2b3d d7bc
00000090: ce5e 193e 74df bd3e 2439 e73a c76b 0e3d
000000a0: 8b03 9dbc b947 103f 920c aaba cf3f 1a3e
000000b0: fe8c 0a3d 1f82 98bd b161 d03e c46e 4c3e
000000c0: 4c24 9f3e f8a6 0b3e a69a a73d 6940 693d
000000d0: 9705 793e b4dd 333e 072e b53e bf25 0d3e
000000e0: e975 1cbd 8971 8c3e 479d c43c 262c b03d
000000f0: 0727 243d db1d 2e3e 3093 7a3c 731d 023e
00000100: 26ba 283e 9621 8d3e 2f14 21bc 026f 313d
00000110: 27bf 92ba 658d af3e 84c5 323d e36a 9c3e
00000120: 00ad 9b3e 9ae9 873e 08c1 ae3d 0da9 6f3e
00000130: bc43 d73e 1f9b 123e af54 eebb 79e8 f3bd
00000140: ac0a 7a3e eabf 7abd 4184 003e d795 ee3e
00000150: 85ef 7a3d 0daf c73d 32b8 25bd 7847 953c
00000160: c36d db3c 6314 983d 68ad 9ab9 220d b23d
00000170: 0033 043e 6661 0e3d 25fa e03e f0e5 cc3e
00000180: a477 533d e395 3f3e 72f8 c13e 5cff 033e
00000190: 3c92 22bd b352 b13e 55e8 a83e ff60 ce3d
000001a0: a124 453d 2f80 b33d 05a4 ec3e bc9d ea3d
000001b0: eaec ab3e 34f0 013e 5802 d83d 74dc 893d
000001c0: 3622 333e 3bda 6c3d 0b37 a83e a8f7 d33d
000001d0: c6cd 7abc a59b 123d 1139 5a3d 43ad 1d3d
000001e0: afb1 c63e 8188 ecbc b5df 0ebd 2661 c33e
000001f0: 00c2 1ebd a95a 353d 0bf7 e63d a501 e7bc
00000200: f9e0 8d3d 45a9 183e adb3 a9ba 41ea 283d
00000210: c985 a9bc 0d5e f23d a765 a13d cf44 153e
00000220: b539 ed3e 53ee a9bc a7e0 a73c c413 ca3e
00000230: 422e 923e b46e 9f3d 206b 963d 576a 323e
00000240: 4820 a9bc ecfe e73c c131 bd3e 4969 e83d
00000250: ce00 c93d 894c 653e ea75 013f e11a 103f
00000260: 9f5f 193d eb22 ad3e 04a8 1d3c 9f6a 703e
00000270: 2dd3 973c 6ca2 31bc 08c1 f43d 20cd 233e
00000280: 95b0 893d 849b edbc d471 9f3d 4e83 ab3e
00000290: d08d 7ebc 6ade ab3d d875 dcbb 2571 b63e
000002a0: 4190 963e 7978 eb3e c9b6 a83e 0833 8d3d
000002b0: 1a44 0a3e f249 be3e 60a6 fcbc 8fcd 873d
000002c0: d939 4d3d ac76 d13d 9412 3f3d 071d 3a3e
000002d0: 748d 91bc ff5e a93e 2884 253e f694 cf38
000002e0: 1e0e d13d 60fa 99bc 8a4c b7bb 8570 333c
000002f0: 78f1 31bd e586 f73d 804c 993e 2bdc af3d
00000300: 286d 193e 5909 883d 7055 023d 21da 843d
00000310: 5e93 d53e d45f 643d e95a 603d e9c0 b53e
00000320: 8751 6ebc c3e4 093c 7075 a13e fa8a 8abc
00000330: 72a8 633e be68 923e 72d9 ac3e bae8 843d
00000340: 86e1 2e3d d0fc 74bd 6ba1 d73e 173a 593d
00000350: 5e5a 433d ba34 e73c f75e 9f3e 025c c83e
00000360: 83fb b23e ec5e 073d 11ba 7a3d b4a0 afbc
00000370: cb14 053f fa6f b63c 5e36 b63e 668f 23be
00000380: 6562 de3e f0d5 1c3d c56f 953c 7b85 a63e
00000390: 9874 903d 9910 323e cf75 8ebc a33e 883d
000003a0: 8276 7c3d 5c92 283d 183e 833e 944b 7e3d
000003b0: 4046 a03b 5f3f 223e eac6 e6bd 9c56 ebbd
000003c0: f465 fa3d d7fc ec3d 1338 943e ea51 a4bc
000003d0: 09c4 b03e 9d0e 2e3d 320d 013e 0870 373e
000003e0: 2978 433e 0177 bb3e 3b1e 96bc ff2b 943e
000003f0: 4f65 683d 1a0b 593d e20b 853d 7eda cd3e
-0.10517733 0.24783863 0.07411818 0.08885097 0.14221665 -0.038772337 0.0011223454 0.23125514
0.23958309 0.33925465 -0.023215182 0.32167172 0.038176376 0.15560049 0.19434103 0.010319203
-0.087634526 0.057372537 0.40397456 0.47743693 0.11413305 -0.047522526 0.16836956 0.0032439346
0.115015864 0.034565695 0.14974117 -0.056059852 0.019618157 -0.048211843 0.0777637 0.11427435
0.13810731 0.19648921 0.18477415 -0.026274284 0.14977571 0.37084544 0.0017640931 0.034770753
-0.019166728 0.5635944 -0.0012973717 0.15063404 0.033825867 -0.07446694 0.40699533 0.19964129
0.3108238 0.13637912 0.08183794 0.056946192 0.24318539 0.17565042 0.3538668 0.1378393
-0.038198385 0.2743037 0.024000777 0.08602171 0.040076282 0.17003576 0.015293881 0.12706546
0.1647726 0.27564687 -0.009831472 0.043318756 -0.0011195884 0.34287563 0.043645397 0.30550298
0.30405426 0.2654541 0.085329115 0.23404332 0.42043865 0.14316987 -0.0072732787 -0.11909575
0.24418133 -0.06121818 0.12550451 0.46598694 0.06126358 0.09750185 -0.040458865 0.018222556
0.026785737 0.074257635 -0.00029502367 0.08693911 0.1291008 0.034760855 0.43940845 0.40019178
0.05162777 0.18709521 0.3788486 0.1289038 -0.03969024 0.34633407 0.32989755 0.10077094
0.048130635 0.087646835 0.46218887 0.11455867 0.3357919 0.12689286 0.10547322 0.06731501
0.17493519 0.05782531 0.32854494 0.10349971 -0.015307849 0.035792965 0.05327708 0.038495313
0.38807437 -0.028873684 -0.034881312 0.38160056 -0.03875923 0.044275913 0.112775885 -0.028199026
0.06927676 0.14908321 -0.0012947224 0.041239027 -0.020693677 0.11834345 0.07880717 0.1457703
0.4633309 -0.020743525 0.020492865 0.39468205 0.28550917 0.07784787 0.07344651 0.17423378
-0.020645276 0.028319798 0.36952022 0.113482065 0.098146066 0.22392477 0.5057055 0.56291014
0.037444707 0.33815703 0.009622578 0.23478173 0.018533314 -0.010841947 0.1195088 0.15996218
0.067231335 -0.02900482 0.07785383 0.33498615 -0.01553674 0.083920315 -0.0067279153 0.35633197
0.29406932 0.4599035 0.32951954 0.06894499 0.13502541 0.3716579 -0.030841053 0.06631004
0.050103996 0.10227713 0.046648577 0.18175136 -0.017767645 0.3308029 0.16163695 9.898275e-05
0.10207771 -0.018796146 -0.005593841 0.01095212 -0.043443173 0.12086276 0.29941177 0.085869156
0.14983046 0.06642408 0.03181976 0.06486917 0.41713995 0.05575545 0.0547742 0.3549874
-0.014545805 0.008416357 0.3153491 -0.016911972 0.22232226 0.28595537 0.33759648 0.064897016
0.042695545 -0.059811413 0.4211534 0.053033914 0.047693603 0.028223384 0.3112714 0.39132696
0.34957513 0.03304951 0.061212603 -0.021438934 0.5198485 0.022270191 0.35588354 -0.15972671
0.43434444 0.038289964 0.018241772 0.32523713 0.070534885 0.17389144 -0.01739016 0.06652572
0.061636455 0.041155204 0.2563331 0.062083796 0.004891187 0.15844487 -0.112684086 -0.11491129
0.12226477 0.11571663 0.2894903 -0.02005859 0.34524563 0.042494405 0.1260269 0.1791383
0.19088806 0.3661423 -0.018324962 0.28939816 0.05673724 0.052989103 0.06496407 0.4020576

linear2.bias f4 [5]
00000000: e263 8a3e 568f 543e 0269 113e b424 0e3e
00000010: e787 1f3e
0.2702933 0.20757803 0.14200214 0.13881189 0.15579186
