model/model.pth (torch, 14751 bytes, 4 tensors)

linear1.weight f4 [256, 7]
000000 fe 52 28 3c cd 5e 0c bd 42 07 dc be 7d e2 97 be
       0.010273693 -0.034270097 -0.42974287 -0.29664984
000010 78 2a 99 be b6 e0 87 3c 24 5d 37 bf 39 1a c0 bc
       -0.29915214 0.016586643 -0.71626496 -0.023450004
000020 61 f1 88 bd 8d 5c 77 be d8 e9 d9 be e6 4c 3f bc
       -0.066866644 -0.24156399 -0.4256122 -0.011676049
000030 28 0a 5f be f7 f9 1b be 3c 2a bb be 60 84 fd bc
       -0.21781218 -0.15232073 -0.3655566 -0.03094691
000040 1b c0 44 be 69 f9 c5 be 8f 0a f5 be 78 8a a6 ba
       -0.19213907 -0.38666847 -0.47859618 -0.0012706062
000050 40 b5 c9 bd 07 5a 87 be c1 ab c0 bd f9 96 0f bf
       -0.09849024 -0.26435873 -0.094077595 -0.5608974
000060 c3 92 c0 be 6d bd 66 be 64 95 9d be 58 07 1b be
       -0.3761197 -0.22533198 -0.30778039 -0.1513952
000070 ae 2e db be 55 6d 44 bc 0f 25 a1 be d0 34 82 3d
       -0.4280905 -0.011988957 -0.31473586 0.063577294
000080 93 9a 05 bf c4 04 ab bc fe 09 b9 bc 65 f3 43 be
       -0.52188987 -0.020876296 -0.022587772 -0.19135816
000090 e0 dc 3d bc 51 9e 03 3c cb f3 62 3c 19 58 10 bf
       -0.011588305 0.008033351 0.01385207 -0.56384426
0000a0 4f 72 17 bf 4a 51 46 3a d6 36 57 3d df dc 57 bd
       -0.59158796 0.00075652136 0.05254253 -0.052700873
0000b0 6f 21 a8 be 62 70 e4 be d2 30 bb 3d 8e 37 b6 be
       -0.32838008 -0.4461699 0.09140171 -0.3558926
0000c0 50 53 87 bb 62 c3 58 be 3a 83 ba 39 c1 ab f7 be
       -0.0041298047 -0.21168283 0.00035574456 -0.48373225
0000d0 5a 21 52 be 93 ae 54 3d 18 93 b0 bd 28 dc 3b be
       -0.20520535 0.0519243 -0.08621806 -0.18345702
0000e0 6a b9 59 bc ad 88 18 bd 67 0d 71 be 7d b8 89 be
       -0.013288835 -0.03723972 -0.23540269 -0.26898566
0000f0 22 35 d5 bd 6d b1 03 be 90 b8 c7 bc 4d 23 a1 3d
       -0.10410525 -0.12860651 -0.024379998 0.07868061
000100 e2 4f 22 bd 13 77 21 be 29 14 86 3c 04 c6 e9 be
       -0.039626963 -0.1576808 0.016367035 -0.45658886
000110 69 2f 08 bf b9 69 b2 bd 24 e3 a6 be 62 03 76 bc
       -0.5319734 -0.08711571 -0.3259517 -0.015015455
000120 54 6f 2f be 25 02 a5 bd 72 b5 e9 3c b9 a3 d7 be
       -0.17132312 -0.0805705 0.028528903 -0.42117098
000130 57 d9 99 be e5 02 e7 be 34 ad 3e bc 34 15 f4 bd
       -0.3004863 -0.45119396 -0.0116379745 -0.11918107
000140 ce af 07 bf 2e a3 57 be c4 2d 96 be 17 ee c3 bd
       -0.5300263 -0.21058342 -0.2933179 -0.095668964
000150 05 b3 04 bf f3 08 16 3c 69 51 af 3c 8a e0 4d be
       -0.5183566 0.009157407 0.021401124 -0.20105186
000160 fa 0e 68 bc fc e7 9e bd 3e 94 cd bd cf 2f de bd
       -0.014163727 -0.07759091 -0.100380406 -0.108489625
000170 d9 6b d0 bb 0a 81 6c be af 8c d9 bd d7 b1 bc 3c
       -0.0063605127 -0.230961 -0.106225364 0.02303402
000180 d4 e7 e4 bd 16 ff b2 bd b1 07 a0 be d8 4c 51 3c
       -0.1117703 -0.0874006 -0.31255868 0.012774669
000190 88 c4 dd bd 25 f9 a4 be a6 1a c4 3c 39 5c 14 be
       -0.10828501 -0.32221332 0.023938488 -0.14488305
0001a0 88 69 e8 be e0 6a 64 3e 7f f2 59 bd 0e 9a 7b be
       -0.45393014 0.22306395 -0.053209778 -0.24570486
0001b0 0d d2 64 bd b9 b6 0e bf e4 d3 43 3d 26 13 07 bf
       -0.055864383 -0.5574756 0.047809497 -0.52763593
0001c0 57 a3 11 bf 9d 6f 1c b9 69 9c d7 3d 7b 5d 37 be
       -0.5688986 -0.00014918899 0.1052788 -0.17906754
0001d0 ad fc 12 bf 8e 6f 42 bf 1e c3 4b bf bb ab e5 3c
       -0.574168 -0.7595147 -0.795946 0.028035989
0001e0 ee 8c 3f bc 31 0f cb bc 4b e4 3b bd 09 66 f3 bd
       -0.011691315 -0.024787517 -0.045872014 -0.11884696
0001f0 9a 5a aa bd c2 c0 4d bc 4a bb ba bd d6 ae 16 bd
       -0.08318062 -0.012558164 -0.09117754 -0.03678783
000200 65 66 ab bd 92 b8 65 bd c3 b8 46 be ca 53 01 bf
       -0.083691396 -0.056084223 -0.19406419 -0.50518477
000210 9f bc c1 be c9 ad 39 3e d3 47 13 bd 6c b4 d8 be
       -0.3783922 0.181327 -0.03595717 -0.4232515
000220 d0 d3 05 3c 98 9f 9f 3d 7d 71 da be 6a b4 fa bc
       0.008168176 0.07794112 -0.4266471 -0.030603606
000230 0d ee 6f be cc 2c 2e bd 46 f8 c3 be 35 40 df be
       -0.23430653 -0.04252319 -0.38275355 -0.43603674
000240 7e 2c ff be b6 72 fa bd 0c 62 9f 3c 3a 47 b3 be
       -0.49838632 -0.122289106 0.019455932 -0.3501528
000250 34 df c6 bd 46 10 b7 bd fb ea c3 be ab c3 fc be
       -0.09710541 -0.08938651 -0.38265213 -0.49368033
000260 55 b5 0f bf 4d af 84 be fc 4f 74 3e 10 c8 65 bd
       -0.56136066 -0.25914994 0.23858637 -0.056098998
000270 13 74 05 be df a9 fe be 25 11 31 be 2c 9f 26 bd
       -0.1303256 -0.49738976 -0.17291696 -0.040679142
000280 49 bd 4e be 62 5e 27 be 2e 1a 1a bd 3e 01 6c bd
       -0.20189394 -0.16344598 -0.037622623 -0.057618372
000290 11 89 37 be a6 f5 27 bf 66 c8 1a bf ba 83 5c be
       -0.1792338 -0.65609205 -0.60462034 -0.21534625
0002a0 62 b2 00 bd d9 f8 0f bd 16 be d6 ba d0 25 b6 be
       -0.03142012 -0.03514943 -0.0016383554 -0.35575724
0002b0 85 cd 3a be 0c 4e c9 bd 86 f1 00 bf a0 23 1b 3d
       -0.18242462 -0.098293394 -0.50368536 0.03787577
0002c0 2f 17 31 bd e5 cb 10 bf 98 a4 04 bf 1f aa bc bd
       -0.043235 -0.5656112 -0.5181365 -0.092121355
0002d0 08 62 3d be 08 e1 65 bc 49 0e 94 bd b9 05 5d bc
       -0.18494427 -0.014030702 -0.07229287 -0.013490134
0002e0 6e 09 71 ba 5c 66 9f bd 2c 3b 15 bf 28 b6 bc be
       -0.00091948255 -0.077831954 -0.58293414 -0.36857724
0002f0 9a b4 a2 be 08 d2 be 3d 31 8a b4 3d 4a f7 a2 be
       -0.31778413 0.09317404 0.088154204 -0.31829292
000300 8c 9d f6 be fd 8e ef be 0d 0c 7f bd 8a 81 a6 be
       -0.48167074 -0.4678878 -0.062267352 -0.32520705
000310 f3 b5 09 bf 2e 99 4f bd e8 c6 c2 bd 72 1e 09 be
       -0.5379326 -0.050683193 -0.095105946 -0.1339052
000320 0f f0 ac be 3d 4c a1 3c 9c f3 25 bf a8 32 5c be
       -0.337769 0.019689674 -0.64824843 -0.21503699
000330 df 11 d1 ba a5 8a 39 3b 12 99 32 be e6 6c 6d be
       -0.001595076 0.0028311398 -0.17441204 -0.23186073
000340 fc ad 50 be 4c 78 e3 bc 61 9a ad 3e 36 88 1a bd
       -0.2037887 -0.027767323 0.33906844 -0.037727557
000350 52 3a 91 bc d5 ad e6 be e3 69 1a bf 23 85 a8 be
       -0.017728005 -0.45054498 -0.6031782 -0.32914075
000360 94 95 82 be 04 8e f7 bd be b0 41 bd b3 9e ba be
       -0.25504744 -0.12087634 -0.047287695 -0.36449203
000370 b8 e1 74 be 22 35 bd be 33 5b 30 be 66 fc 9f 3b
       -0.2391423 -0.369546 -0.1722229 0.004882383
000380 bd cd 98 be 92 b6 68 bc a7 0c ec bd 8d f1 a8 be
       -0.29844466 -0.014203684 -0.11525851 -0.3299679
000390 d5 34 b4 be 6a 49 c0 be 24 c2 28 bd 87 1e 46 be
       -0.35196558 -0.3755601 -0.041200772 -0.19347583
0003a0 68 d7 6c bd 89 c7 2a be e4 90 30 3d 37 ec 11 bf
       -0.057822615 -0.16677679 0.04310693 -0.5700106
0003b0 3e 0f 33 bf 76 ff 27 bf b5 09 aa be 7a 94 61 3c
       -0.6994513 -0.6562418 -0.3321053 0.01376831
0003c0 41 dc d8 be 5c 8e 09 bf 89 d8 0f 3b 63 fb be bd
       -0.4235554 -0.5373285 0.0021949133 -0.09325292
0003d0 03 53 04 be f8 29 52 be e4 11 71 bc 39 b0 ea be
       -0.12922291 -0.20523822 -0.014713738 -0.45837572
0003e0 8d f1 17 bf e7 2a f4 3d 58 ef 0a bf 36 56 01 bf
       -0.5935295 0.119222455 -0.5427146 -0.5052217
0003f0 ca ef df 3e 87 89 3e bd 14 31 d0 be 61 5f 93 be
       0.43737632 -0.046517875 -0.40662444 -0.28783706

linear1.bias f4 [256]
000000 af 73 20 bf 82 d3 fe 3d ba 1e b2 be 6a 0c 49 bd
       -0.6267652 0.12442686 -0.34789068 -0.049084105
000010 dd 28 08 be e5 09 f9 be ed 13 a0 be e0 ff 86 be
       -0.13296838 -0.4864036 -0.31265202 -0.26367092
000020 53 91 70 be 8d 34 8b bd 3a f2 42 3e 94 90 0b 3e
       -0.23492937 -0.06797133 0.19037715 0.13629371
000030 38 43 04 bf bd 6d 08 bf a3 1a 22 bf 76 23 89 be
       -0.5166507 -0.5329245 -0.63321894 -0.26784867
000040 9f 6a ac be 7f 5f 86 be 60 8d 8d be 84 46 ce bd
       -0.33675095 -0.26244733 -0.27646923 -0.100720435
000050 2f 5f 12 bf e0 7c 1d bd 04 81 d8 be 4d 08 01 bf
       -0.5717649 -0.03844917 -0.4228593 -0.5040329
000060 bb 90 02 be a1 53 f3 be 5b 70 c8 3c a2 a8 cc 3c
       -0.12750523 -0.4752474 0.024467638 0.024982754
000070 fc a1 82 be 42 c5 c1 3d 05 29 2c bf c2 eb a4 be
       -0.2551421 0.09461452 -0.6725009 -0.3221112
000080 e6 c4 a9 be 25 b2 fe be fc 89 98 be 0e 75 45 3d
       -0.33158034 -0.49745288 -0.29792774 0.048207335
000090 97 88 25 bd e1 b9 12 bf 4c 20 07 bf 65 a1 1b bf
       -0.040413465 -0.5731488 -0.52783656 -0.60793144
0000a0 3a 36 b6 bc eb a0 19 bf 22 dc 97 be 39 f4 e9 bd
       -0.022242654 -0.60011166 -0.29660136 -0.11423535
0000b0 2d 10 0a bf c3 4d ba bd 8e 12 ab be c3 8f 3f be
       -0.5393093 -0.09096863 -0.33412594 -0.18707184
0000c0 62 e1 5f be db fe 18 bf f9 05 0c bf 87 30 63 bf
       -0.2186332 -0.5976388 -0.54696614 -0.8874592
0000d0 16 c8 df bb 3c 2c ba bd 9e 01 c0 be 2f 1e 1c be
       -0.006829272 -0.09090468 -0.37501234 -0.15245889
0000e0 d3 e1 b1 3c f5 7d e8 be 8f 75 2d 3e 1d ab 46 bf
       0.021714127 -0.45408598 0.16939376 -0.7760485
0000f0 d8 6f 04 bf ac ff da bd f1 cc 90 3e 6c c6 f0 be
       -0.5173316 -0.10693297 0.28281358 -0.47026384
000100 3b 71 79 bd d9 e9 14 3e 3d 79 7e be da 2c 04 bf
       -0.060899 0.14542331 -0.24850936 -0.5163094
000110 f8 e3 32 be 76 b6 0f bf 81 3c 99 be 18 d5 a6 bd
       -0.17469776 -0.5613779 -0.29928973 -0.08146113
000120 2d 17 c3 be da 1e 1f bf 75 fb 34 be 84 cf a6 3d
       -0.3810362 -0.6215645 -0.17674048 0.08145049
000130 17 f9 2e bb d0 cb 1b bf 1b 0b 58 bc ef d4 02 bf
       -0.0026698762 -0.6085787 -0.0131862415 -0.5110616
000140 b0 68 f2 be 1c 6a 03 bc 73 09 cc 3d 72 c7 b6 3c
       -0.47345495 -0.008020904 0.0996274 0.0223119
000150 58 fe 0d bf d1 48 b8 be 7c 5a 9f be 91 15 1d 3f
       -0.5546622 -0.35993055 -0.31123722 0.6136103
000160 58 f2 06 bf 8d 3b ea bc 3c b5 cc bd be 6f 10 bf
       -0.5271354 -0.02859285 -0.09995505 -0.56420505
000170 7a 22 87 be f5 f8 0f bf dd 6e fc 3d 10 43 45 bd
       -0.2639349 -0.56239253 0.12325833 -0.04815966
000180 94 c4 23 bf 47 40 cb be a9 05 8f be 26 69 8b be
       -0.6397183 -0.39697477 -0.27934006 -0.2722866
000190 3c 15 62 be 3c 7a 35 bf d3 36 99 be 65 a9 b9 be
       -0.22078413 -0.7088964 -0.2992464 -0.3626205
0001a0 95 c7 29 bf b5 af 24 be 9c 14 2b bf 31 82 32 bf
       -0.66320163 -0.16082652 -0.6682832 -0.69729906
0001b0 62 ac 84 3d fd f6 9a be cd 54 25 bf 93 19 05 bf
       0.06478192 -0.30266562 -0.6458252 -0.5199215
0001c0 f2 69 eb bd f9 66 91 be 72 bc 73 be 6e f9 86 bc
       -0.11494817 -0.28398874 -0.23802355 -0.01647636
0001d0 4b 4f 99 be cc e2 e5 be af 20 f6 be 4b 3d f6 be
       -0.29943308 -0.44899595 -0.4807181 -0.48093638
0001e0 e0 6a 5e 3e 0f 01 99 bd 43 c0 fb 3d 59 44 59 be
       0.21720457 -0.07470905 0.122925304 -0.21217479
0001f0 2c d7 be be 93 2f b4 3e 7c 5a 1a bb 76 96 e8 be
       -0.37273538 0.35192546 -0.0023552468 -0.45427293
000200 48 a7 8a be d4 23 7f bd c2 ad e0 be e3 d8 da 3c
       -0.2708075 -0.062290028 -0.43882567 0.026714748
000210 ac e3 0e 3e 49 49 2f 3d 1b 87 c3 bd cd 3f 15 bf
       0.13954037 0.0427945 -0.09547254 -0.5830048
000220 54 f6 63 3d 9c 98 89 be 97 4d a5 3c 17 cd 12 bf
       0.05565484 -0.26874244 0.0201786 -0.5734419
000230 e0 87 81 be 9a 35 f8 be 74 d6 49 be 7f 97 37 bd
       -0.25298977 -0.48478395 -0.19710714 -0.044822212
000240 8f 9f d6 be ec 9b d5 be 76 2f 41 bf a6 f0 e3 bd
       -0.4191861 -0.4172052 -0.75463045 -0.111298844
000250 f7 d2 9b be e4 db 9d be 30 23 70 3e 16 0e b4 3c
       -0.3043439 -0.30831826 0.23450923 0.021979373
000260 bf 2b de be 65 4e 22 be fe 1a 9d 3d 45 30 9a be
       -0.4339275 -0.15850218 0.07671164 -0.30114952
000270 f7 85 15 bf 0f dd 82 be b3 b6 28 be 21 9d a2 be
       -0.5840754 -0.2555928 -0.16475944 -0.31760505
000280 6b 10 d5 3d 9c f5 fc 3a 7b 71 a6 3b 60 56 70 be
       0.10403522 0.0019299272 0.005079446 -0.2347045
000290 74 3a d8 3e f1 c4 b4 be 52 a2 63 bf 05 2d ea be
       0.42232096 -0.35306504 -0.88919556 -0.45737472
0002a0 cf 67 c6 be 50 48 f8 be bf 42 30 bf a4 00 19 bf
       -0.38751075 -0.4849267 -0.68851846 -0.597666
0002b0 93 87 d0 bd 3c 51 ed be 53 15 27 bf f1 a2 5a bf
       -0.10182109 -0.4635104 -0.65266913 -0.8540488
0002c0 7d c7 1b bf a6 ae 23 bf e8 ed a4 be 50 d3 76 3e
       -0.6085127 -0.6393837 -0.32212758 0.24104047
0002d0 73 08 29 bf 36 37 c2 3c cf 8a 91 be 1c c7 a9 be
       -0.6602852 0.023707967 -0.28426215 -0.3315972
0002e0 8f 2d 94 3d 6b 0e 2e bf 0b 02 49 bf d7 4c 83 be
       0.07235252 -0.6799075 -0.7851874 -0.25644562
0002f0 3c 0d 77 3d f2 5b 07 bf dd 21 17 3e 6e 2d 32 bf
       0.060315356 -0.5287467 0.14759012 -0.6960057
000300 f4 ca 69 3e aa 26 29 bf 66 c4 11 bf ce 34 2c be
       0.22831327 -0.6607462 -0.56940305 -0.16817018
000310 1d d5 18 bf 19 14 91 3c f9 12 03 bf 10 05 6b 3d
       -0.59700185 0.017709779 -0.51200825 0.057377875
000320 98 3d 46 3d d5 ac d8 be a8 51 7a bd b2 e6 bb be
       0.048398584 -0.4231936 -0.06111303 -0.36699444
000330 a9 0b a5 be 6f a4 74 bd b5 eb f7 bb cc 8e bd 3d
       -0.32235458 -0.05972713 -0.0075659403 0.09255752
000340 b1 91 ae be 73 59 53 3e 7e 44 f0 be 42 1e 03 be
       -0.3409553 0.20639591 -0.46927255 -0.12804511
000350 be 1c 8a 3b 9b 5a 9d be a8 7e f5 3d 4c 67 99 3c
       0.004214852 -0.3073319 0.119870484 0.018726014
000360 ee 89 d0 be 74 31 90 bc b7 cb 24 be 0b dc 0d be
       -0.40730232 -0.017601706 -0.16093336 -0.13853471
000370 b7 19 36 bf 6c 66 75 be f5 b9 0b be d2 43 07 bd
       -0.7113299 -0.23964852 -0.13645156 -0.033023663
000380 55 39 a8 3c e8 61 db be 5f 4f 4f be 7c cb 9d be
       0.02053515 -0.42848134 -0.20245121 -0.3081931
000390 76 2c 5a bf c7 a2 10 bf 5b 49 2c be b4 9e 11 bf
       -0.8522409 -0.5649838 -0.16824858 -0.56882787
0003a0 13 3a b2 be 77 7b bc be b0 8f d7 be c9 dc 01 bf
       -0.34809932 -0.36812946 -0.42101812 -0.50727516
0003b0 d3 92 1c 3d cf 94 03 be 42 f2 8b 3e 2a 44 ef be
       0.03822596 -0.12849735 0.27333266 -0.46731693
0003c0 e1 06 fa bd 45 77 2b bf 9e b3 0b bf d1 b2 ff bd
       -0.12208343 -0.66978866 -0.5457095 -0.124852784
0003d0 22 98 05 bf f5 7b 9c be 39 78 05 bf 62 86 f6 be
       -0.5218526 -0.30563322 -0.5213657 -0.481494
0003e0 49 66 02 be 54 39 91 be db 69 b2 be db 8a 2e bf
       -0.12734331 -0.2836405 -0.34846386 -0.68180627
0003f0 25 f7 28 be db 6d 5d be aa d2 4a be 1f 01 42 be
       -0.16500528 -0.21623938 -0.19806924 -0.1894574

linear2.weight f4 [5, 256]
000000 12 66 24 3d a9 ba d2 3c 4e 62 00 bd 6e 15 c7 3b
       0.040136404 0.025723772 -0.03134375 0.0060755527
000010 4d fa 7f 3c 22 a2 ff bb 5b e7 81 bc 65 7b a2 3d
       0.015623641 -0.00780131 -0.01585739 0.07933692
000020 f4 6e 6a 3b 62 54 bb bc 95 a4 e5 bd 1b 7a 3a bc
       0.00357717 -0.022867385 -0.11213032 -0.011381651
000030 d1 48 b0 bc e1 3e 65 bc 73 0e e8 3c 61 f7 e7 3b
       -0.021519097 -0.013992042 0.028327202 0.0070790504
000040 eb 36 c3 bc e9 73 cc 3c 63 de d8 bc 8d 90 03 3c
       -0.023829898 0.024957614 -0.02647323 0.008030069
000050 f0 50 00 3c a8 30 da bc 16 4c 25 bd 71 ef 7f bd
       0.007831797 -0.02663453 -0.040355764 -0.06248421
000060 30 88 45 bd 6e 3a d7 3c f9 4c 63 3c b6 bd a0 3c
       -0.04822558 0.026272979 0.013873332 0.019621711
000070 e1 d3 18 3d f5 1a ca bb 2b 6b c8 bb 9d b9 32 3c
       0.03731144 -0.0061677643 -0.006116291 0.0109085115
000080 a8 8e 14 bd 5a 52 95 3d b3 94 73 3b 2f 9d 91 bc
       -0.03626886 0.07291098 0.003716749 -0.017775146
000090 d3 e1 b4 bb 8a 51 56 bc db 4b 3f bd e1 9e 0a 3e
       -0.0055200844 -0.013080964 -0.0467032 0.1353717
0000a0 7d be 70 3d 7d 35 b9 3d 58 90 c9 3d 21 8a 05 3e
       0.058775414 0.09043405 0.098419845 0.13040973
0000b0 75 b2 a0 3b e9 3c a1 3d aa f8 0d bc dc 2e 2a 3c
       0.0049040862 0.07872946 -0.008665243 0.010387149
0000c0 ca 69 23 bd ad 65 07 3c 4b 14 25 bd 5f b5 d2 3d
       -0.03989581 0.0082639875 -0.040302556 0.102885
0000d0 99 1c 6f 3c 79 4e 10 bd 28 e8 95 3c 13 df 73 bc
       0.014594221 -0.035231087 0.018299177 -0.014884728
0000e0 36 5b aa 3c 65 7d 43 bd 0a 6f ac bc 3d 4e bf bc
       0.020795446 -0.047727007 -0.021049041 -0.023352737
0000f0 9c a0 30 bd 3c cb 38 3d 9d 50 cb bd be 66 b9 3d
       -0.04312192 0.045115694 -0.09927485 0.090528
000100 9a f6 d9 3c 19 92 af 3c d0 0b 70 3d 8a ef e5 ba
       0.026606847 0.02143197 0.058605015 -0.0017542702
000110 1c e3 f9 bc 98 a6 04 3d 55 39 2e 3c 4e bc 1f 3c
       -0.030503802 0.03238544 0.010633786 0.009749485
000120 e3 f8 ec ba b2 9e ee 3b 44 6c dd 3d 08 c9 76 3b
       -0.0018079545 0.0072821015 0.10811666 0.0037656445
000130 06 83 3b 3c 93 7b 88 bc 3e 54 94 3b d1 c5 1f 3c
       0.011444813 -0.016660487 0.004526644 0.009751753
000140 b6 a5 62 3a 9b 8f 9f 3d a7 7a 7e bb 57 d4 4d 3d
       0.00086459087 0.077910624 -0.003883043 0.05025133
000150 a3 82 f3 bc f4 14 8c bd bd 77 95 3d fa 79 ab bd
       -0.029725378 -0.06839934 0.07298229 -0.083728746
000160 a0 a5 02 3d d7 d5 70 3a ed f3 87 3c d5 e7 04 bd
       0.031896234 0.0009187138 0.016595805 -0.032447655
000170 f4 25 8e bc b8 24 90 3d 2d 10 5a bd 79 ca 35 3d
       -0.017352082 0.070382535 -0.053238083 0.044382546
000180 2a 4a f2 3c 27 85 58 bc 12 ad d0 3c 78 e0 24 bd
       0.02957638 -0.01321534 0.025473151 -0.040253133
000190 9f b9 4f 3d 5b 33 97 3d 70 4f a5 3d a8 eb 87 bc
       0.05071413 0.07382842 0.08071792 -0.016591862
0001a0 b3 90 58 3d bd e4 a2 3c 3c c4 25 3d cb d3 ce bc
       0.05287237 0.019884462 0.040470347 -0.025247475
0001b0 eb 6a c8 3c 6c 51 1e 3d eb 86 a2 bb 3e 3c 64 3d
       0.024465045 0.03865187 -0.004959931 0.055721514
0001c0 d3 6a 42 bb 70 ed ec 3b 34 cc 7e bc b3 d0 20 3d
       -0.0029665723 0.007230453 -0.0155516155 0.03926153
0001d0 dc 2e 36 bc e9 ea 99 3c b2 20 e2 3d 7b 65 ad bb
       -0.011119571 0.018788772 0.110413924 -0.0052916384
0001e0 78 3a b4 bd fe 63 0d 3d 37 0d 08 be fd 15 e1 bc
       -0.088002145 0.034519188 -0.13286291 -0.027476305
0001f0 2f 68 8a 3c 65 90 f5 bd c2 93 06 3d 14 f8 c4 bd
       0.016895382 -0.11990432 0.032855757 -0.0961763
000200 92 c5 fa 3c c8 b4 90 bd bb 6a c4 bd 9b 2b 16 3c
       0.030611787 -0.07065731 -0.0959067 0.00916567
000210 26 33 87 bd f6 db 0b 3d b4 08 32 3c 71 5e fd 3b
       -0.06601553 0.034145318 0.010866333 0.0077322056
000220 0c f1 01 3e a0 9a ea bd 55 17 f1 3c 2e 85 21 3c
       0.12689608 -0.11455274 0.02943007 0.009858413
000230 a3 9d 76 3d e1 16 9c bc 73 d3 ee bc 16 cf d3 3c
       0.060208928 -0.019053878 -0.029153561 0.025855582
000240 04 2f 66 bc 7f 55 64 bc 59 fa 43 3c 49 3f c1 3d
       -0.014049295 -0.0139363995 0.011961543 0.09435899
000250 1b 8d 2b bd b8 81 1f bd d0 af 2d 3c f9 9f 76 3d
       -0.041882616 -0.03894207 0.010600999 0.060211156
000260 d4 04 8e 3b 9d 99 db 3c 57 4a 8f bd b9 50 cb 3c
       0.0043340717 0.026806647 -0.06996601 0.024818765
000270 30 ad f3 3c e6 4c 00 3d bc 3e 0b be 55 5b c1 bc
       0.029745668 0.031323336 -0.1359815 -0.02360312
000280 ac b5 bf 3c 9c 99 97 bd 50 fc 7c 3d ce de da 3d
       0.023402058 -0.074023455 0.06176406 0.10687028
000290 25 47 f4 bc 6e b1 41 3c 74 c4 de 3d 97 04 17 bc
       -0.02981908 0.011822088 0.10877314 -0.009217403
0002a0 34 e7 d8 bc 07 43 19 bb 29 b2 0a 3d ad da 07 3d
       -0.026477434 -0.0023385899 0.033861313 0.03316753
0002b0 fc 46 02 bc e7 1e f4 3c 6f 41 c6 3a ee 57 13 bd
       -0.007951494 0.029799892 0.0015125702 -0.03597253
0002c0 5d b1 9a bb a2 99 f2 bc e6 78 9c 3b fe 3a 10 be
       -0.0047208504 -0.029614273 0.0047751544 -0.14085004
0002d0 36 d8 0a bd 91 1e 72 3c 81 3e 31 3d 40 24 86 bc
       -0.0338976 0.014777795 0.0432725 -0.016374707
0002e0 fe af 5f 3b f4 ce 85 bd 9d db 4e 3c 5f e0 d6 bc
       0.0034132 -0.06533614 0.012625602 -0.026230035
0002f0 e1 cd 10 bc b7 a0 db 3c 22 f1 3d bd 51 c5 53 bd
       -0.008838148 0.026810033 -0.04637254 -0.051701847
000300 bb 7a e3 3c 45 fb 86 3c 8f aa 8c 3d 34 40 a6 3c
       0.027768483 0.016477237 0.06868469 0.020294286
000310 66 06 fa 3c 0f 98 71 3d ce 73 18 bd 1b c8 39 bd
       0.03052063 0.058982905 -0.037219815 -0.04535685
000320 3c 65 b7 3c 36 4e 1b 3d 7d f8 a9 bc 08 3a c9 3d
       0.02238714 0.037916385 -0.020748371 0.09825522
000330 c2 f1 e9 bb c9 c1 cc bc ab 7d 2a 3d 84 6b eb 3c
       -0.0071394155 -0.024994748 0.041623753 0.02873779
000340 3f cb 04 3e 43 90 0a be e8 f1 08 3c 8f fa 9e bd
       0.12968157 -0.13531594 0.008358456 -0.07762634
000350 4d 6a 27 be 52 ee 56 3d 39 73 98 bc fe d5 3a bc
       -0.16349144 0.052473374 -0.01860963 -0.011403559
000360 5d c6 8d 3b 90 ea 95 bd 03 5c 34 bc ad 9c c2 bc
       0.0043266253 -0.0732013 -0.011008265 -0.02375635
000370 8b 80 b6 3b cf 0a 94 bc 53 ac d7 3c 54 6c 85 3b
       0.0055695227 -0.01807156 0.026327288 0.0040717516
000380 de 37 77 3c 49 e7 0f bc 90 a1 32 bd ec ea 86 3d
       0.015089003 -0.00878317 -0.04361111 0.065877765
000390 ae 29 e1 3d 3b 78 ce bc df e3 e2 3b bc 80 79 bc
       0.10994278 -0.025203815 0.006924137 -0.015228447
0003a0 5a 6a a0 3c 2f dd d1 b9 3e 39 34 bd 54 5f 66 3c
       0.019581962 -0.0004002838 -0.043999903 0.014060814
0003b0 2b c8 06 3d 68 48 10 3d 62 6e 47 be 7b a6 26 3c
       0.03290574 0.035225302 -0.19475701 0.010171528
0003c0 e0 83 40 3c 5c 6e d3 3d 95 e7 9d 3b bc e8 1e 3c
       0.011750191 0.10323784 0.0048188665 0.009699043
0003d0 d6 16 d9 3c d3 6e 1a ba f0 72 76 bc f6 2b 3c bc
       0.026500147 -0.0005891148 -0.015042052 -0.0114850905
0003e0 15 dd 22 be aa b6 1a 3c 07 20 49 3c 78 ca a4 bb
       -0.15904649 0.009442965 0.012275702 -0.005029019
0003f0 83 67 66 3c 71 a3 f8 3b fb 6f 4d 3e 5f b3 d3 bc
       0.014062765 0.007587843 0.20062248 -0.025842367

linear2.bias f4 [5]
000000 f6 44 0e bf 2f cb 02 bf 42 e0 b0 be 03 e8 e9 be
       -0.55573976 -0.51091284 -0.34546095 -0.45684823
000010 ea 05 d9 be
       -0.42387325
