model/model.pth (torch, 13727 bytes, 4 tensors)

linear1.weight f4 [256, 6]
000000 e8 43 bd 3d 19 dc 4a be 5f 77 8e 3e 74 66 58 3d
       0.09241468 -0.19810523 0.27825448 0.052832082
000010 bb a7 6c 3d db 31 81 3c 21 44 d6 bd 51 0f c2 3d
       0.057777148 0.015770843 -0.10462213 0.094755776
000020 2b a3 ff 3d 6b 8c 57 be 4d ff d0 3d 00 10 e9 3d
       0.12482294 -0.21049659 0.10204945 0.11380005
000030 8f bc ba be fb 66 d3 3d a3 3a 1a be f2 a9 f0 bd
       -0.36471984 0.10322376 -0.1506143 -0.117511645
000040 f5 04 86 3d 02 da 88 3e e9 6d 4d bb f0 4c df 3e
       0.06543914 0.26728827 -0.003134603 0.43613386
000050 b3 65 86 3e e4 33 27 be 0f cb fd 3d 73 0f d9 3e
       0.26249465 -0.16328388 0.12392246 0.423946
000060 0f 63 68 3d d4 93 0f bf 29 7f ed 3e 76 1b dc 3d
       0.056735095 -0.5608494 0.46386078 0.10747425
000070 e9 ab 56 bd 40 ce 23 be b0 51 ec bd c4 ce a6 be
       -0.05241004 -0.15996647 -0.11539018 -0.32579625
000080 ad f9 c0 3d e0 d5 b7 3e a8 64 22 be 81 0c 7b be
       0.09422622 0.3590536 -0.1585871 -0.24516489
000090 2f ad 85 3d 58 3d 2f 3c ca b4 ab 3e ef a1 aa 3d
       0.06527173 0.010695778 0.3353637 0.08331668
0000a0 45 e0 c3 3e 39 5c a3 bd fc e4 f2 bd f4 30 95 3e
       0.38257042 -0.079765745 -0.118600816 0.2913891
0000b0 f8 4f ec be 2e bb 93 3e b4 8f b9 be 86 3a 9a be
       -0.4615476 0.28853744 -0.3624245 -0.30122775
0000c0 01 d0 88 3d 28 4d 9e be c7 2e 06 3e df d9 12 3d
       0.066802986 -0.3091824 0.13103782 0.03585231
0000d0 4d 08 11 3e 41 91 91 be 97 12 6d 3d f0 70 ca be
       0.14163323 -0.28431132 0.057879057 -0.3953929
0000e0 49 7d 0f 3f 2b c1 06 bf 7d 4e 8b 3d bd 5f 46 be
       0.56050545 -0.526385 0.0680208 -0.19372459
0000f0 2e 87 32 be 2b 10 c1 be f4 e8 77 bd 7e 6f ab 3e
       -0.1743438 -0.37707648 -0.060524896 0.334835
000100 a8 a3 ed bd 06 c1 c0 bd e4 7a 70 3c 87 0e 90 3e
       -0.116034806 -0.09411816 0.014677737 0.28136083
000110 cc 60 64 be c2 4f de be b0 97 5b 3e bc b7 35 be
       -0.2230255 -0.43420225 0.21444583 -0.1774587
000120 14 9c ee 3c ba 3b 7d 3e 4d 98 97 3e 8e cf e4 3e
       0.029127158 0.24729815 0.29608384 0.44689602
000130 2f 65 02 3f 2a d1 c0 bd 32 8e 1b 3d 39 83 27 be
       0.50935644 -0.09414895 0.037977405 -0.16358651
000140 e4 6f 88 be 5e d6 c7 3e ed 7b 1e 3e ba d8 c8 be
       -0.26647866 0.39030737 0.15476961 -0.3922785
000150 fb 55 0c 3e d0 f5 fe be 83 3a 61 3e 28 14 e1 bd
       0.13704674 -0.49796915 0.21994977 -0.109901726
000160 e9 fa 3b 3e f1 1e c2 be 93 e9 7d 3b 0b 4c dd bd
       0.18357433 -0.3791423 0.0038743957 -0.1080552
000170 d2 9a 97 3e 00 16 b3 3e 6d 53 fa 3e 76 09 a8 3d
       0.29610306 0.34977722 0.48891774 0.082049295
000180 ee 3b 50 be ee 9b f5 3d e2 bb a7 be 2b ed 24 3e
       -0.20335361 0.11992632 -0.3276053 0.16106097
000190 6e cf 3a 3c d9 76 38 be ac cf 08 bf dd 56 7a 3d
       0.011401994 -0.18014087 -0.5344188 0.061117996
0001a0 5e 6b ea bd 79 9d af bd ad c9 68 be 18 ae 6c be
       -0.1144626 -0.085749574 -0.22733183 -0.23113286
0001b0 a0 7f 9d 3b 51 c0 ce ba 8f 8e 9f 3e 3e dd ec bc
       0.004806474 -0.0015773867 0.3116345 -0.02891409
0001c0 2d d8 d3 bd 0f c6 ae be 78 0f cd be a3 e0 d2 3d
       -0.10343967 -0.34135482 -0.40050864 0.10296752
0001d0 6d 82 47 3d fc 05 b7 be 2c 8a 68 be 85 15 8c 3e
       0.048708368 -0.35746753 -0.22708958 0.27360168
0001e0 c9 25 93 bc f7 82 39 bd 6b 5a c5 be fc d9 eb bc
       -0.017962353 -0.045290913 -0.38545546 -0.028790466
0001f0 b4 46 40 be 88 64 20 be a2 6b b6 be ae 46 3e be
       -0.18776971 -0.1566335 -0.35628992 -0.1858165
000200 80 d6 87 3e 42 26 bb be b7 f8 b2 bd 79 76 78 be
       0.26530838 -0.36552626 -0.08738845 -0.24263944
000210 da 46 82 3d ce 28 48 3e 0b cd ac 3e 59 a8 48 3e
       0.0636117 0.19546816 0.33750185 0.1959547
000220 a6 f0 38 be c8 ba 6d 3c cf 4d 7a be 2c 09 27 bb
       -0.1806055 0.014509864 -0.24443744 -0.0025487645
000230 02 69 83 bd 4e 98 84 3e 90 55 2d bd 89 b9 a9 be
       -0.06416513 0.2589745 -0.042317927 -0.33149365
000240 98 46 02 3e 92 bc c4 be 08 28 54 3e 04 d3 8a 3e
       0.12722242 -0.38425118 0.20718396 0.27114117
000250 f0 5e a9 3e 8b e8 cc be 79 d7 27 3d 44 69 9f 3e
       0.33080244 -0.40021166 0.040976975 0.31135
000260 5b 39 02 3f ba 75 b9 3e de 16 95 3e 0c 81 fd bd
       0.5086877 0.3622263 0.2911901 -0.12378129
000270 fa a8 5b bc f9 20 99 3e 85 dc e0 be c6 a7 c6 be
       -0.013406986 0.2990797 -0.43918243 -0.38799876
000280 a3 5c db 3e 27 52 d9 be d0 8a bd be 9e 47 52 be
       0.42844114 -0.4244549 -0.37019968 -0.20535132
000290 ff d4 22 be 15 a4 9d 3e 10 9d 75 3c 39 58 85 bc
       -0.15901564 0.30789247 0.01499106 -0.01627742
0002a0 86 5a 82 3d d6 88 f1 be 5b 2a 9c be 31 49 f8 be
       0.06364922 -0.4717471 -0.30501065 -0.4849334
0002b0 aa 23 91 be 39 e9 1c 3e a8 ef a3 3b 54 a1 87 3e
       -0.28347522 0.15323342 0.0050029345 0.2649027
0002c0 34 30 a1 be 53 2a c2 bd fa 4a e5 bd bc 10 fa bd
       -0.3148209 -0.09480729 -0.11195941 -0.12210223
0002d0 e0 fd 2b 3d 9e 02 91 be b9 46 12 be 73 6c 0b be
       0.04199016 -0.2832231 -0.14284791 -0.13615589
0002e0 c2 df c4 3e 6c be 98 be 83 0c 00 3e 4f 63 de be
       0.38451964 -0.2983278 0.12504773 -0.4343514
0002f0 1e bc e0 be ea a3 11 bd a3 b6 70 3e 52 46 c3 be
       -0.43893522 -0.03555671 0.2350717 -0.38139588
000300 83 1a 1d 3e b6 ea 94 be d1 13 05 bd 4b 98 00 3f
       0.15342145 -0.2908532 -0.0324896 0.5023238
000310 1b 8f b9 3e 00 e4 f7 3b 8c 39 82 bd 0f 9c 2e be
       0.36241993 0.0075650215 -0.063586324 -0.17051719
000320 64 df 30 3e ec 84 5f 3d 41 06 9b be 7f 46 aa be
       0.17272717 0.054570124 -0.3027821 -0.3325691
000330 cb 46 a4 bc a6 e6 98 3e e5 85 41 3e 08 84 28 bc
       -0.020053288 0.2986347 0.18898733 -0.010285385
000340 b2 e3 07 3f e4 79 09 be 5e 3e 0c bd 32 37 b2 3e
       0.5308181 -0.13425404 -0.034239165 0.34807736
000350 35 79 09 be 19 54 47 be 56 6e 7f bb cc 88 05 be
       -0.13425143 -0.19465674 -0.0038975677 -0.13040465
000360 8d b5 aa bc ae 25 59 3d 0a 99 f3 bb f0 8c c5 3d
       -0.020838523 0.05301445 -0.007434015 0.09646022
000370 6c a0 47 bd 44 72 af be 9b d6 14 bd 04 19 0a bf
       -0.048736975 -0.34266865 -0.036337476 -0.5394442
000380 1a 63 99 be e5 eb 24 3d 0c 64 3a 3e 6f 82 d2 bd
       -0.2995842 0.04026403 0.18202227 -0.102787845
000390 5c 1c 9e 3d 17 e6 9e 3d ad ec ec 3e 88 47 0a 3f
       0.07720253 0.0775873 0.4627432 0.540154
0003a0 93 f7 e7 3e bc 0a b3 be 62 e4 5f bd b6 a1 87 bd
       0.45306072 -0.34969127 -0.054661162 -0.06622641
0003b0 f2 56 68 be 53 76 07 bf c3 07 cd 3e 58 8e 9f bd
       -0.22689417 -0.52914923 0.40044984 -0.07790822
0003c0 62 c8 ce 3c a8 3e 37 3e 21 fb 0d 3f 1d 12 b8 3e
       0.025242034 0.17894995 0.5546132 0.3595132
0003d0 2c 49 9e 3e 66 10 2c bd 55 4b 88 3d 35 64 9e be
       0.309152 -0.042007826 0.066549934 -0.30935827
0003e0 64 f3 98 bd 9e e4 60 3e f8 5d ea be 0a 68 dc be
       -0.07468298 0.2196221 -0.45774817 -0.43048126
0003f0 28 5e 4c be 8c aa ed bd 4f ba ad be c5 7c b0 be
       -0.19957793 -0.11604795 -0.33931205 -0.34470192

linear1.bias f4 [256]
000000 a9 f0 f8 be d8 d7 9b be 9f 0a 70 3e d9 62 e8 bd
       -0.4862111 -0.30438113 0.23441552 -0.11346979
000010 76 1d b5 be 4f be bd be 9d b8 8d 3e df 6f 07 3d
       -0.3537404 -0.37059256 0.2767991 0.033065673
000020 7d 22 15 bf 26 4f b5 be 31 83 ae be 59 00 e8 be
       -0.5825575 -0.35411948 -0.34084466 -0.45312765
000030 33 72 09 3f f7 58 6c bd 44 72 23 bd 81 f3 03 3f
       0.5368988 -0.05770203 -0.039903894 0.5154343
000040 4a 81 af be 53 b7 32 3e bb 21 bf be 0e bb 86 3d
       -0.34278327 0.17452745 -0.37330422 0.065786466
000050 1f 66 0b be 6b aa 7d 3e 35 1f ae bc a6 b6 55 bd
       -0.13613175 0.2477204 -0.021255115 -0.05217614
000060 17 f9 05 bf 80 03 04 3f 06 f8 e0 3d ce 9c 57 3d
       -0.52333206 0.5156784 0.10984807 0.052639775
000070 e7 76 a6 bd e2 40 9c be b7 b5 16 be 4a 4f 3c 3e
       -0.081281476 -0.30518252 -0.14717756 0.18389621
000080 f2 fd 84 be 63 42 3f bb 06 37 2f bf f0 08 21 be
       -0.25974995 -0.0029183857 -0.68443334 -0.15726066
000090 7c e2 79 be 39 9d 3d be 40 1a c5 bd 78 0a 58 bd
       -0.24402803 -0.18517007 -0.096241474 -0.05274436
0000a0 16 ff b6 3c a2 93 8c 3d 55 f2 95 be 6c f9 f7 be
       0.022338431 0.06864096 -0.29286447 -0.4843248
0000b0 d0 02 a5 be d0 ee d2 bd eb f8 bb be 82 5e af be
       -0.32228708 -0.10299456 -0.36713347 -0.3425179
0000c0 fd 10 7e be f1 ab 39 bd 8e 17 70 be 39 e4 f0 be
       -0.24811168 -0.04532999 -0.23446485 -0.4704912
0000d0 bd 97 0b bf 74 d2 ff bd d3 b5 d7 be 57 f1 91 be
       -0.5452841 -0.124913126 -0.42130908 -0.2850444
0000e0 89 62 bf be 80 15 0e bf f6 0e e0 be 72 b8 58 be
       -0.37379864 -0.55501556 -0.43761414 -0.2116411
0000f0 1a c3 5c be 20 45 9b be 0d 8c a9 be ec 4c ad be
       -0.215588 -0.30326176 -0.33114663 -0.3384775
000100 d0 26 8d 3e 16 21 ba bc eb 38 49 3e 09 1a 3a bd
       0.27568674 -0.022720855 0.19650619 -0.045434985
000110 4a 0d 00 bd 33 1b 97 be 8e d4 61 be b6 ab b5 bd
       -0.031262673 -0.2951294 -0.2205374 -0.08870642
000120 b7 78 ae be 07 e2 1d be ef 9a 00 3e d2 f0 c7 3d
       -0.34076473 -0.15418254 0.12559102 0.0976273
000130 f1 b3 3e 3c 79 6d dc be e4 94 0c bb 0c 10 bf 3e
       0.011639581 -0.4305227 -0.002145105 0.3731693
000140 eb a7 97 3c cb b8 8b be 4c 8b c2 be f1 d1 c6 be
       0.018512687 -0.27289423 -0.379969 -0.38832048
000150 42 f0 1b 3e 47 f1 5c bd 77 ad 93 be af 66 ce bd
       0.1522837 -0.053941038 -0.2884328 -0.10078179
000160 a4 98 35 3e 0a 53 a6 bd d5 fe 4b be f8 7a f6 3e
       0.17734009 -0.08121307 -0.1992143 0.48140693
000170 de ec 87 bc 7f 51 68 3d 95 d3 92 be 84 cd 91 be
       -0.01659244 0.056718346 -0.2867705 -0.28477108
000180 a9 6e 85 be 7d 8e ed bd 4d e1 a6 be d5 f6 04 be
       -0.2606099 -0.11599443 -0.32593766 -0.12984784
000190 54 07 09 bf 1f 3c 70 3e 27 d0 e9 bd c3 ef 0e 3e
       -0.53526807 0.23460434 -0.11416655 0.1395865
0001a0 af 5f 5c 3e e5 42 cf be 1f d8 ac be 8c 33 87 be
       0.21520875 -0.40480724 -0.33758637 -0.26406515
0001b0 19 bc 96 be 6e d8 14 3e 43 c9 45 3d 85 87 ea be
       -0.29440382 0.14535686 0.04828764 -0.45806518
0001c0 3c 13 cf 3d bf 16 9d bd bb 12 32 3e 03 cb b8 be
       0.101110905 -0.07670354 0.17389958 -0.36092386
0001d0 44 9c 53 be 96 9e b7 bc de 46 71 bb 4a d4 89 be
       -0.2066508 -0.022414487 -0.0036815922 -0.26919776
0001e0 74 eb 0b be 01 1e c2 be b0 3a 16 be 07 f7 b4 be
       -0.13664037 -0.37913516 -0.14670825 -0.35344717
0001f0 38 e2 99 be 5e 61 c1 bb dd d8 26 be 0e bd 06 be
       -0.30055404 -0.0059014997 -0.16293664 -0.13158056
000200 1f c8 c2 be 68 e1 76 be 64 32 81 be 52 99 5b 3d
       -0.38043305 -0.24109423 -0.25233757 0.053613015
000210 72 9d f8 be a9 fb 49 3e d5 7e 84 bd 53 f2 0f bf
       -0.4855762 0.19724907 -0.06469504 -0.5622913
000220 aa f4 25 bd 7a 83 b7 bd ce df 17 be 20 a8 08 bf
       -0.040516533 -0.08960624 -0.14831468 -0.5338154
000230 9a eb cf 3e 88 61 c4 bc 33 3a ca be df f1 5b bd
       0.40609437 -0.023972288 -0.39497527 -0.053697463
000240 a3 b1 0f be 2c a8 09 be 95 35 8c 3e bb c9 85 3d
       -0.14032607 -0.13443059 0.2738463 0.06532618
000250 a9 4f e8 be 2a 04 bd 3d 28 10 63 3d d5 3e 05 bd
       -0.45373276 0.0922931 0.05543533 -0.032530624
000260 39 d0 b6 be be a2 08 be 14 02 3d be 49 f6 9f bd
       -0.35705736 -0.13343331 -0.18457824 -0.07810647
000270 49 bf 71 be 8d db 92 3e 19 55 7e be c8 1d cd be
       -0.23608126 0.2868313 -0.2483715 -0.40061784
000280 df 59 39 3e 83 8c 3e 3e 14 17 2a 3e 49 db 84 bc
       0.1810069 0.18608288 0.16610366 -0.016217845
000290 d8 a8 74 3e 49 5b ec bd f1 bb 9e be 0f 9d 86 3e
       0.23892534 -0.11540849 -0.31002763 0.262917
0002a0 11 50 22 be 02 6d 90 be d6 96 9a be e0 ed 1a be
       -0.15850855 -0.28208166 -0.30193204 -0.15129805
0002b0 92 cf a3 3e aa cb b0 bd 58 49 dd 3d 90 e0 7d be
       0.319943 -0.08632596 0.10805005 -0.24792695
0002c0 2e 66 68 be 8c a8 20 3e b8 ca 32 be 8c f4 24 bf
       -0.22695228 0.15689296 -0.17460144 -0.6443565
0002d0 ee 4b ce be 9c 67 a5 be a7 02 7c 3e 03 a7 1d be
       -0.40292305 -0.3230561 0.24610387 -0.15395741
0002e0 87 93 55 3e e6 7d 0c bf 13 af 92 be 10 39 74 bc
       0.20857058 -0.54879606 -0.28649196 -0.014906183
0002f0 4d 94 8d bd d3 86 90 3e ad 0b b3 3d 97 e1 2d be
       -0.06913052 0.28227863 0.08742461 -0.16980587
000300 b1 14 62 3d 55 49 be be 79 ef ee be 71 be 8c bc
       0.055195514 -0.37165323 -0.46667078 -0.017180653
000310 d9 65 1f be d7 d3 30 be 22 72 cd bd da 60 21 3e
       -0.15566196 -0.1726831 -0.10031535 0.15759602
000320 e9 a6 89 bd fb fd 5a 3d 25 79 28 be b5 c4 25 3d
       -0.06721289 0.05346487 -0.16452463 0.040470798
000330 b2 d6 dd 3d 95 2b fc be 32 ac b8 3e 5d 04 90 be
       0.108319655 -0.49252 0.36068875 -0.2812833
000340 d8 eb 09 bf 1d 5f 83 be 91 80 ee 3b a3 67 d9 3d
       -0.53875494 -0.25658503 0.00727851 0.1061547
000350 e1 b9 a0 be 38 5c 1e 3e 2a b0 d2 be 3b 30 db 3a
       -0.31391814 0.15464866 -0.41150028 0.0016722748
000360 6e 67 10 bb 2f 15 c7 be 97 a4 ad be fb 7d e3 3d
       -0.0022034305 -0.3888335 -0.33914635 0.11108013
000370 42 3f 86 be ac 6f 2b 3e 70 0e c6 be 53 29 35 3e
       -0.26220137 0.16741818 -0.3868289 0.17691545
000380 da 6d 53 bd 4e 94 93 bc 1e f5 85 be ab 0d a9 be
       -0.051618434 -0.018015053 -0.26163572 -0.3301824
000390 f7 48 20 3e 89 a3 85 be b6 3b 44 3e 5c 7b 53 be
       0.15652834 -0.2610133 0.19163403 -0.20652527
0003a0 d0 ad 40 3d 90 bb 21 bf 2d 96 bd be 27 2f ab bd
       0.04704076 -0.6317682 -0.37028638 -0.08358603
0003b0 04 68 2d bf 9e fa 8e 3e fc 68 f2 bc 3f 6c 62 bd
       -0.6773684 0.2792558 -0.029591076 -0.055279013
0003c0 20 e4 28 be 43 46 27 bf 12 03 b6 be 94 e2 ea 3e
       -0.16493273 -0.65341586 -0.35549217 0.4587599
0003d0 9d 32 4e be ac 2d f3 bd 48 d3 24 bd 33 87 b3 3e
       -0.20136495 -0.118739456 -0.040240556 0.35064086
0003e0 d7 ae 0b be ac 7b 8e 3d e3 45 e7 bd 59 3b 9f be
       -0.13640915 0.06957182 -0.11292627 -0.31099966
0003f0 87 43 4f bb 8b b8 cc 3d 2d 8d 9b 3e c6 a9 c5 bd
       -0.0031625943 0.09996136 0.30381146 -0.09651522

linear2.weight f4 [5, 256]
000000 41 ad 3a bd f6 44 b6 bc 05 0c 57 3d 24 7f c2 3d
       -0.045575384 -0.02224968 0.052501697 0.094969064
000010 25 45 ab 3c 76 83 71 3d a8 7b 9b bd 48 49 ab 3d
       0.020906994 0.05896326 -0.07591945 0.08363587
000020 a6 97 66 3b 4b f5 b6 3d 12 e8 b0 ba 2d f4 11 bc
       0.0035185604 0.08933505 -0.0013496897 -0.008908314
000030 49 74 6d be 5f 1f 56 bd 96 51 ea 3c 6c bf 27 be
       -0.2318889 -0.05227601 0.028603356 -0.16381615
000040 b0 d7 58 3d d9 98 26 be f1 f9 3e bd 6c 09 96 bd
       0.05294007 -0.16269244 -0.04662508 -0.07326016
000050 00 7f 26 3c 2e c5 f0 bd 3e ca 2c 3c dc cc fd 3d
       0.010162115 -0.11756359 0.010546265 0.123925894
000060 85 a1 b9 bd 42 83 c7 bd 56 03 23 bc 05 44 0f 3e
       -0.090640105 -0.09741832 -0.009949526 0.13990791
000070 34 1e 73 3d af 0c 28 3c 64 be 19 3b e3 a5 f2 bd
       0.059354976 0.01025693 0.002345943 -0.11848047
000080 81 e9 be bd c5 c5 13 3d c3 e9 db bd 73 5c 10 3d
       -0.09321881 0.03607728 -0.10737946 0.035244416
000090 d9 91 0d bd 76 20 5f 3c 0a 86 21 3c 48 47 a1 3e
       -0.03456292 0.013618579 0.009858618 0.31499696
0000a0 56 d1 9e 3e 50 15 4a bb 94 7a 71 bd d9 fc af bb
       0.31019086 -0.0030835457 -0.05895479 -0.005370718
0000b0 bf b1 99 3c 0a e3 81 3d ed 1d 65 3c e3 8a c1 3d
       0.018761514 0.063421324 0.013984186 0.09450319
0000c0 3e 8a cb 3b 8f 17 ce ba 38 62 ce bc 54 44 a3 bd
       0.006211548 -0.0015723574 -0.025193319 -0.07972017
0000d0 eb c6 56 bd 36 8a 0d 3d 45 e1 f1 bb 3d ff aa 3d
       -0.052435797 0.034555636 -0.0073815905 0.08349464
0000e0 a8 38 56 bb 9d c3 39 3c 31 fc e9 bd 20 be c6 bc
       -0.0032687578 0.011338142 -0.11425055 -0.02426058
0000f0 ec ec 47 3d 4a 9e 8c 3a a0 33 72 bd 00 b5 7f 3c
       0.04880993 0.0010728326 -0.059131265 0.015607119
000100 10 8b 36 bd f2 ca 1c bc 65 c3 76 3e d6 b9 c1 3b
       -0.044566214 -0.00956987 0.24097975 0.005912046
000110 40 6e 96 3e d1 f7 a0 bd dc 6f a7 3c f4 0b f9 3b
       0.2938099 -0.07859767 0.02043908 0.007600302
000120 d6 a0 01 3e e0 12 96 3b f7 60 89 3e cd b6 1e 3c
       0.1265901 0.004579887 0.2683179 0.009687138
000130 60 be 05 bd b5 a4 fe bc 0a 5c 98 3b 45 6c d4 bd
       -0.03265226 -0.031084398 0.004649644 -0.10372213
000140 64 49 5f 3c 17 7a ec bc 52 c7 93 bd 10 2e 33 be
       0.0136283375 -0.02886681 -0.07215752 -0.1749804
000150 3d 23 ca 3d fa a7 03 3e 31 d9 c3 3d 6a 7d 9c 3e
       0.098700024 0.12857047 0.0956291 0.30564433
000160 21 3a 95 3c 4e cf af 3e b6 ef 83 bc e9 96 3d be
       0.018216195 0.34337848 -0.016105514 -0.18514599
000170 f1 3d 36 3e d2 6f e1 bc 60 ee 73 3d c9 90 55 3b
       0.17797066 -0.02751914 0.059553504 0.003258752
000180 bb 2c 42 3e 78 28 c8 bd 18 8f 51 bb 7c 6a 6e 3b
       0.18962376 -0.09773344 -0.003197616 0.0036379388
000190 66 87 5f 3b 53 ad 0d be 97 a9 a4 3c 41 5f 66 be
       0.0034107803 -0.13835649 0.020100398 -0.22497274
0001a0 83 19 a3 3e 40 a1 a8 3e 1e 40 ff bd 82 a6 7a 3c
       0.318554 0.32935524 -0.12463401 0.015298488
0001b0 e5 fc f4 3d 48 ad fd bd e8 ed 8b bc d9 66 07 3c
       0.11962298 -0.123865664 -0.017081216 0.008264267
0001c0 a8 68 88 bd 84 35 01 3c de 3d 8e bd 1c 9e 51 bd
       -0.066605866 0.007886294 -0.06945394 -0.051176175
0001d0 ab 39 97 bc 0e c9 32 3e 99 52 86 bc 3a ac 22 bd
       -0.018460115 0.17459509 -0.016396808 -0.03971503
0001e0 30 2c 53 3e e5 82 fd bc 88 80 2e be f6 32 28 bc
       0.20622325 -0.030946204 -0.17041218 -0.010266056
0001f0 b6 6f e1 bc 9b be b7 bd 1b d3 ff bc b5 6f 39 bc
       -0.027519088 -0.08971902 -0.031228593 -0.011318137
000200 28 bb 0b bc 80 04 71 bc 8c 8f 6f 3b 16 90 cc 3d
       -0.008528508 -0.014710546 0.0036554066 0.0998842
000210 15 17 b9 bd 27 81 c0 3b 0a 59 19 3d d0 8e 37 3d
       -0.09037606 0.005874771 0.03743843 0.04481393
000220 00 bd a8 3d 0c cd 8a 3d c1 d0 84 bc 77 56 5e bc
       0.08239174 0.06777391 -0.016212823 -0.0135704195
000230 fb 21 1b 3e b5 8d a2 bc 9e 8e 0e bd 25 8c be 3b
       0.15149681 -0.019842962 -0.03480398 0.0058150464
000240 38 01 4c 3c ac 8a f5 3c e8 db ae bd c8 45 fe bc
       0.012451462 0.02997335 -0.085380375 -0.031039134
000250 22 73 77 bb 01 ba 3d be c0 be 6a bc 01 f2 90 bd
       -0.0037757833 -0.18527986 -0.014327705 -0.070774086
000260 c7 a9 b8 3c 05 c2 db 3c 97 2a 26 3d fd 81 3c 3d
       0.022541894 0.026825914 0.04056796 0.046022404
000270 a5 45 87 bb 0d 85 57 be a5 71 62 bd 52 4a 37 3e
       -0.0041281753 -0.21046849 -0.05528416 0.17899445
000280 6e 02 80 be 29 c2 6c bb fd 1b 88 3e f6 a7 99 3e
       -0.25001854 -0.003612647 0.26583853 0.30010957
000290 1d 0c 57 bd 1a 4f 16 3e f4 5f 78 3c 8a df 57 bd
       -0.052501787 0.14678612 0.015159596 -0.052703418
0002a0 b7 76 8e 3d 0c 6f d6 3c 77 5c 60 3a 69 07 28 3b
       0.06956237 0.026175998 0.00085587 0.0025639182
0002b0 51 d6 78 bd ef 18 47 bc 8d eb 9b bc f1 3f 0c bd
       -0.060751263 -0.012151941 -0.019033218 -0.034240667
0002c0 46 ab e6 3e 32 0c 89 bc d2 10 89 3c 34 7a e1 39
       0.45052546 -0.016729448 0.016731653 0.00043006393
0002d0 2e f6 51 3d a1 93 6d bc fe 30 1c be 41 c0 8b 3e
       0.051260166 -0.0145005295 -0.15253064 0.27295116
0002e0 d2 67 dc bd 24 60 ce 3c 80 af 57 bd 6f 29 94 3c
       -0.1076199 0.025192328 -0.052657604 0.018086163
0002f0 0b 9a 2b 3e 52 16 06 be 9a 3b d4 3d b7 71 e8 3d
       0.16757981 -0.13094452 0.103629306 0.113498144
000300 f9 d2 e7 ba 44 af 2b 3e 99 af 8d bd 17 75 8f bd
       -0.0017686776 0.16766077 -0.06918258 -0.07004755
000310 ae e3 b8 3d 68 8f 63 3c 2c 58 c4 3d b3 a4 9d 3d
       0.090278015 0.013889171 0.0958713 0.076974295
000320 94 b9 3d 3d f2 0d 98 3d 49 7e a4 bb 2d bd 7d 3d
       0.04631956 0.07424535 -0.005019937 0.06194799
000330 fd c0 9e bb c3 93 59 be 69 12 75 3b cc 55 69 3d
       -0.0048447833 -0.21247773 0.0037395007 0.056966588
000340 db 1f f0 3c 28 cd 02 bd d4 00 92 3e e1 78 57 bd
       0.029312065 -0.031933933 0.28516257 -0.052605513
000350 6b 57 41 be 81 6f b2 bd d3 be 45 bd 2d 85 a7 3d
       -0.18881004 -0.08712674 -0.048277687 0.08179698
000360 d1 3e 62 3d a0 de 02 bb f7 bf 53 bd 4a 86 b4 bd
       0.055235688 -0.001996912 -0.051696744 -0.08814676
000370 d6 a6 5a 3d 97 0d 87 bc c0 c7 9a 3c e7 ef 11 3e
       0.053381763 -0.016485972 0.018894076 0.14251672
000380 2f 0f c3 3c 48 e5 69 bc 76 93 0e 3e 48 2c 10 3d
       0.023810951 -0.014275856 0.1392344 0.03519848
000390 36 98 7a 3e e0 e2 6e 3d 46 1d 9b bd 82 eb 85 3d
       0.24472126 0.058321834 -0.07573943 0.0653906
0003a0 5d fc d0 3d 03 42 9d be c3 e7 c0 ba 2a 8f 28 3c
       0.102043845 -0.30714425 -0.0014717508 0.010288039
0003b0 38 40 c0 bb 5a 7d 83 bd fd 01 1a 3c 40 21 74 b8
       -0.0058670305 -0.06420393 0.009399888 -5.82051e-05
0003c0 95 03 e6 bc 51 6b 2f bc 10 6b be bb d5 16 81 be
       -0.02807788 -0.010706739 -0.0058111027 -0.25212732
0003d0 d2 5e 95 bc 54 c5 5e bd e6 38 92 3e f5 fe 83 bd
       -0.01823369 -0.054387406 0.28559035 -0.064451136
0003e0 e0 fe 6c 3e bf e8 bc bd 0b 7d 8d 3d d2 a7 33 3d
       0.23144102 -0.0922408 0.06908616 0.043861218
0003f0 7c f6 cf 3d fa e3 0c be 8d bb 21 3c 1a 33 15 3e
       0.10154435 -0.13758841 0.009871376 0.14570275

linear2.bias f4 [5]
000000 11 d7 4f bd a6 16 0e be 34 c0 57 bd 05 73 bb bc
       -0.050742213 -0.13875827 -0.052673534 -0.022881994
000010 85 29 82 3a
       0.0009930587
